…
                      (activation): ReLU()
                    )
                    (conv3): WeightStandardizedConv2d(256, 1024, kernel_size=(1, 1), stride=(1, 1), bias=False)
                    (norm3): BitGroupNormActivation(
                      32, 1024, eps=1e-05, affine=True
                      (activation): Identity()
                    )
                    (drop_path): Identity()
                    (activation): ReLU()
                  )
                )
              )
            )
          )
          (norm): Identity()
          (pooler): AdaptiveAvgPool2d(output_size=(1, 1))
        )
      )
      (projection): Conv2d(1024, 768, kernel_size=(1, 1), stride=(1, 1))
    )
    (encoder): DPTViTEncoder(
      (layer): ModuleList(
        (0-11): 12 x DPTViTLayer(
          (attention): DPTViTAttention(
            (attention): DPTSelfAttention(
              (query): Linear(in_features=768, out_features=768, bias=True)
              (key): Linear(in_features=768, out_features=768, bias=True)
              (value): Linear(in_features=768, out_features=768, bias=True)
            )
            (output): DPTViTSelfOutput(
              (dense): Linear(in_features=768, out_features=768, bias=True)
              (dropout): Dropout(p=0.0, inplace=False)
            )
          )
          (intermediate): DPTViTIntermediate(
            (dense): Linear(in_features=768, out_features=3072, bias=True)
            (intermediate_act_fn): GELUActivation()
          )
          (output): DPTViTOutput(
            (dense): Linear(in_features=3072, out_features=768, bias=True)
            (dropout): Dropout(p=0.0, inplace=False)
          )
          (layernorm_before): LayerNorm((768,), eps=1e-12, elementwise_affine=True)
          (layernorm_after): LayerNorm((768,), eps=1e-12, elementwise_affine=True)
        )
      )
    )
    (layernorm): LayerNorm((768,), eps=1e-12, elementwise_affine=True)
  )
  (neck): DPTNeck(
    (reassemble_stage): DPTReassembleStage(
      (layers): ModuleList(
        (0-1): 2 x Identity()
        (2): DPTReassembleLayer(
          (projection): Conv2d(768, 768, kernel_size=(1, 1), stride=(1, 1))
          (resize): Identity()
        )
        (3): DPTReassembleLayer(
          (projection): Conv2d(768, 768, kernel_size=(1, 1), stride=(1, 1))
          (resize): Conv2d(768, 768, kernel_size=(3, 3), stride=(2, 2), padding=(1, 1))
        )
      )
      (readout_projects): ModuleList(
        (0-1): 2 x Sequential(
          (0): Identity()
        )
        (2-3): 2 x Sequential(
          (0): Linear(in_features=1536, out_features=768, bias=True)
          (1): GELUActivation()
        )
      )
    )
    (convs): ModuleList(
      (0): Conv2d(256, 256, kernel_size=(3, 3), stride=(1, 1), padding=(1, 1), bias=False)
      (1): Conv2d(512, 256, kernel_size=(3, 3), stride=(1, 1), padding=(1, 1), bias=False)
      (2-3): 2 x Conv2d(768, 256, kernel_size=(3, 3), stride=(1, 1), padding=(1, 1), bias=False)
    )
    (fusion_stage): DPTFeatureFusionStage(
      (layers): ModuleList(
        (0-3): 4 x DPTFeatureFusionLayer(
          (projection): Conv2d(256, 256, kernel_size=(1, 1), stride=(1, 1))
          (residual_layer1): DPTPreActResidualLayer(
            (activation1): ReLU()
            (convolution1): Conv2d(256, 256, kernel_size=(3, 3), stride=(1, 1), padding=(1, 1))
            (activation2): ReLU()
            (convolution2): Conv2d(256, 256, kernel_size=(3, 3), stride=(1, 1), padding=(1, 1))
          )
          (residual_layer2): DPTPreActResidualLayer(
            (activation1): ReLU()
            (convolution1): Conv2d(256, 256, kernel_size=(3, 3), stride=(1, 1), padding=(1, 1))
            (activation2): ReLU()
            (convolution2): Conv2d(256, 256, kernel_size=(3, 3), stride=(1, 1), padding=(1, 1))
          )
        )
      )
    )
  )
  (head): DPTDepthEstimationHead(
    (head): Sequential(
      (0): Conv2d(256, 128, kernel_size=(3, 3), stride=(1, 1), padding=(1, 1))
      (1): Upsample(scale_factor=2.0, mode='bilinear')
      (2): Conv2d(128, 32, kernel_size=(3, 3), stride=(1, 1), padding=(1, 1))
      (3): ReLU()
      (4): Conv2d(32, 1, kernel_size=(1, 1), stride=(1, 1))
      (5): ReLU()
    )
  )
)